model.pth (torch, 181089 bytes, 10 tensors)

conv1.weight f4 [6, 1, 5, 5]
00000000: 2f50 6d3e e0de 09be 6fbe babd 4e6b 9ebe
00000010: f250 84be 0ad8 edbc 2739 d7bd 57ce 90be
00000020: 83a7 8cbe 14b1 d13d 0be5 1dbe b805 97be
00000030: 6d44 50be b655 b5bd 61c8 023d fcbf 05be
00000040: 6f99 e3bd 1f65 72bd f3aa c63d 1f77 0a3e
00000050: de34 88be f1d2 abbe fba0 38bd 9d6a 5d3e
00000060: 1659 c83e ffd1 7e3e df0c 463f 1fdc 273f
00000070: c1e8 5d3f d979 1e3f 1d76 c23d 8768 4f3d
00000080: e8ff 5a3e f1a8 1a3f 8053 443f e842 aabe
00000090: 8c19 02bf 5e94 0abf 5d98 b3be dbd6 c63e
000000a0: e123 e4be 6544 abbe 06e3 2ebf 35ae 3cbf
000000b0: 8c46 ff3b b423 54be 7a49 e1be 444c c3be
000000c0: 63e4 87be ebc0 adbd 4605 debe 0fdf 95be
000000d0: 4c24 bc3d b1cf ab3e d942 7b3e 53d1 903d
000000e0: 2e1b 3a3f beb4 4c3f 950e 883e ad14 183e
000000f0: 37e1 1d3f 1bc7 613f 2f0c bdbc 6154 0ebe
00000100: 504a f6bd bbcf a93e 2d14 bebe 9127 3bbf
00000110: d7c7 2fbf af00 2fbe 42de e8bd 563f c5be
00000120: 9951 58be 846b 39be fb59 133e 44a3 313c
00000130: 20fb c33d 3caa 533e a56b 483d 3f5a 353e
00000140: 1b6e 6bbc 2e42 80be 65f4 38be ca5f b6bd
00000150: 0acc 06be 4e51 d3bd 3fb8 01bb 2cc9 d73d
00000160: 433b 45be b37b 6abe 68fd c53c 554e 123e
00000170: 2b5a 5b3e 5f0c 703e 66ce d33b 2ebc ec3d
00000180: c756 d83d dc3c 98bb 7ecf b3bc 7900 823e
00000190: c4e4 11bf 15c5 1bbf d2c8 9bbd d42d 423f
000001a0: a2b5 0f3f 43f6 24bf 3333 93be 3d1f b53e
000001b0: d803 833f 95b5 5e3e 37d6 d5be a0e2 bdbc
000001c0: d77b f53e 5972 713f f04a 22be 1bd1 62be
000001d0: f704 a13d 29f0 0d3f 62d1 093f 1fdf 82be
000001e0: 3568 63bc ce96 ea3c 510a a73e 0732 e13e
000001f0: 8b81 8d3d 43ba 473d ad14 29be d160 f2bd
00000200: 539d 503e f213 433e b68a 9e3e 780d c23d
00000210: b3db 29bf 3a5e 44bf 17db f0be c75c 3f3e
00000220: 78c2 493e 4a37 23bf c288 88bf 47ec febe
00000230: 55f9 29bd 92d6 863f e49f 5f3f 11b5 c73e
00000240: 6db3 10bd a367 f1be 5af4 853e 128a 883f
00000250: 9b2f 833f 7ee2 093f
0.23175119 -0.13463926 -0.091183536 -0.30941242 -0.25843006 -0.02903368 -0.10508948 -0.28282425
-0.2747155 0.10238853 -0.15419404 -0.2949655 -0.20338602 -0.08854239 0.031929377 -0.13061517
-0.111132495 -0.059178468 0.09700575 0.13522004 -0.26602834 -0.33559373 -0.045075398 0.21622701
0.39130467 0.24884795 0.7736339 0.65570253 0.8668328 0.61904675 0.094951846 0.050636794
0.21386683 0.60414034 0.7668991 -0.3325417 -0.5082023 -0.5413264 -0.3507718 0.38835797
-0.44558623 -0.33450618 -0.6831516 -0.7370332 0.0077903923 -0.20716745 -0.4400137 -0.38144124
-0.26541433 -0.08484062 -0.43363398 -0.29271743 0.091866106 0.33556893 0.24537219 0.070711754
0.7269772 0.7996329 0.26573625 0.14851637 0.61671776 0.88194436 -0.023077099 -0.13899375
-0.12025893 0.33166298 -0.37124768 -0.7310725 -0.68664306 -0.17090105 -0.11370517 -0.38524884
-0.21124877 -0.1810742 0.14389794 0.010842148 0.09569383 0.20670408 0.048930783 0.17710207
-0.014369513 -0.2505049 -0.18061979 -0.08904989 -0.13163772 -0.10318242 -0.0019793657 0.10536417
-0.19260888 -0.2289875 0.024168685 0.14287694 0.21421115 0.23442219 0.0064638136 0.1155933
0.105634265 -0.004645927 -0.021949526 0.25390986 -0.56989694 -0.608476 -0.07606663 0.7585118
0.56136525 -0.64438266 -0.2875 0.35375395 1.0235548 0.21748956 -0.41764995 -0.023179352
0.47946045 0.94315106 -0.15848899 -0.2215008 0.07862275 0.5544458 0.5383512 -0.25560853
-0.013879825 0.028636362 0.32625058 0.4398348 0.06909474 0.048761617 -0.16511793 -0.118348725
0.20372514 0.19050577 0.30965203 0.09475225 -0.6635086 -0.7670628 -0.47042152 0.18687735
0.1970309 -0.6375624 -1.0666735 -0.4978964 -0.041497547 1.0534232 0.8735335 0.3900533
-0.035327364 -0.4714938 0.26162988 1.0667136 1.0248903 0.53861225

conv1.bias f4 [6]
00000000: e012 7bbf f746 c1be 9256 fbbe 6161 62bf
00000010: 9c4f 85be 80a7 e4be
-0.98075676 -0.37749454 -0.49089485 -0.8842984 -0.260373 -0.44659042

conv2.weight f4 [16, 6, 5, 5]
00000000: 1572 9dbd 6e52 cd3c a0ed a93d 8b8c 30be
00000010: 0de7 0fbe b9a2 2d3e ec61 46be 025a 4cbe
00000020: 9704 07be 1193 e8be 2248 ec3d 1cd4 f7ba
00000030: adc3 a53d 0d3a ad3a a3d0 76be 0527 9c3e
00000040: c77e 923d 8b63 9e3e dc68 aabb 89db a13c
00000050: 6833 c03e 4783 8b3e d984 303e 867f 023e
00000060: 0b41 49be d734 983e 62ed 853e 8d06 973e
00000070: fcd9 9b3e 9b05 ae3e b46f b1be 9c1e c0be
00000080: 2980 873e 9d4a 563f 5364 113f f6e2 413e
00000090: 7b86 bfbe eca0 7ebf 4d79 76bf 22ba 45bf
000000a0: 37e8 0f3f f18e eb3e 9d5c bb3e 55e4 a83e
000000b0: 1dfc 873d e708 9bbe ceb2 2d3c 0e91 b73d
000000c0: aebf 4a3d 2b17 f73d 4f63 0e3f f2b8 953e
000000d0: b1fb 11be 0a97 cf3d dddf 033f 0471 05bf
000000e0: 3026 2fbf 174e 6bbe 7e40 673e 94af 523e
000000f0: 4ca8 673f 59d7 d93e ae75 babe dbd6 51bf
00000100: 7ba9 e0be e9d2 d83e 9f7d 2abc 41d3 34be
00000110: ee26 abbe ec15 dcbd 81ff 06be 5f41 093e
00000120: 3a68 02be 744b 2f3d 3b80 6e3e 49b6 28bd
00000130: 8005 af3d 39a3 003e 2192 b1bb 84bd a7bd
00000140: ba31 cc3e 1876 b63e 7513 963e c09a fb3d
00000150: 3c2a 813d ce41 d3bd 1e15 a2bd bb2c 253e
00000160: 3549 4e3d 1949 783c 6e5b ee3c 9899 92be
00000170: 26ba febd 9812 293e 9416 1b3d 6a27 053d
00000180: 873c 59be cfdc 7dbe 5c21 cabe 4dee 2bbe
00000190: 2fe7 e5be c874 91bf 0fab bbbd fe53 113f
000001a0: f142 7c3e 6f6e 35bf 19f1 79bf c6e5 64bf
000001b0: 8156 febe eb3f 84bf d4dd 80bf 1228 76bf
000001c0: 04e8 afbf db69 94bf 54f6 71bf f059 afbd
000001d0: 8c5c 9fbd af66 53be bc6f 0bbf 70eb 03bf
000001e0: 60f5 9f3e 5a4c d43d d5ac 083e 3619 d5bd
000001f0: 1b06 6fbe 9ae7 80bf 7424 03bf 9013 80be
00000200: ad0a 18bf 399b 533e 40b1 0f3f 714c 0d3f
00000210: d2a1 2b3e 66af be3c b859 b3bd dc53 11be
00000220: 14cb b73e 631f 0a3f 360e 023f 120d 773e
00000230: 817a 28be eb8e d2bc 0cfb 6b3e afe1 0e3f
00000240: 6fef 173f 1fc7 6ebe b52d 4abe ba35 cabe
00000250: 6daf fd3c 7706 f43d 0c97 0a3d 4367 2d3d
00000260: 1581 083c 3a5a efbd 26e1 a03d 46e2 9a3d
00000270: 0caf 643e d031 9dbe 8698 dbbe 7026 a3be
00000280: 1bc5 e8bd 3585 123e 6c17 a53c 48a2 b53c
00000290: 4e5a 7dbd 6e87 74bd ae07 113e 1a59 143e
000002a0: da12 a83e 9c76 433d c46e c5be c6b7 45be
000002b0: e69c 6fbe 0c90 8fbd 6338 e4be fc2a cbbe
000002c0: 0a7d 23bf 61c2 00bf 7d35 acbe cfbe e23d
000002d0: 7478 9fbe 7c49 9dbe df03 c7be af3c 2b3e
000002e0: 329d c03e 63ba 0ebf 9fc8 e4be 2e27 7cbf
000002f0: 8914 5ebf e1dc 84be 7b37 3fbf c65e a3be
00000300: 3ea5 25bf ef46 55bf 0c9f 88bf 5bd3 67bd
00000310: 0775 31bc 0065 c13e b3ff 033f 68d4 333f
00000320: f5d8 36be 87ad e73d ace2 c7be 979c 12bf
00000330: 1923 0abe c703 633e 4e33 82bd db30 8ebe
00000340: fb9d 9bbe 6b13 8abe 69bf 8dbe ad68 54bd
00000350: fa69 ffbe 9cf2 92bf 786d 2bbf a08f c9be
00000360: b516 92be fdb7 90bd 02bf 93bc 071b 80be
00000370: afb9 363d 6ec9 f73d 33ff e73e cdf6 033f
00000380: fde1 f83e 3b93 1ebe cb27 23bd 2962 c2bd
00000390: 6722 b4bc 9513 6abd 82cc 36be 16b6 10bd
000003a0: ac30 253d 1bf0 633d 15cf 4abd d917 9fbd
000003b0: 4f13 0fbe a417 3d3d 3081 3d3e a9df 423e
000003c0: e483 673d 13f7 b4bd 1b09 84be 19ed b13d
000003d0: 3002 363e 0420 ebbe 4c01 0ebf 8766 0abf
000003e0: bbfd bebe 7c45 7bbe dd51 803c 2cc6 543d
000003f0: 619b 43bd e20e b73e 0b59 183f 307d 67bd
-0.07687775 0.02506372 0.082972765 -0.17241113 -0.14052983 0.16956605 -0.19373292 -0.1995621
-0.13185345 -0.45424703 0.11537196 -0.0018907818 0.08093963 0.0013216153 -0.24103026 0.3049852
0.07153087 0.3093532 -0.0052004885 0.019758003 0.3753922 0.27248594 0.17238177 0.12743959
-0.19653718 0.29727814 0.2615767 0.29497185 0.30439746 0.33988652 -0.34655535 -0.37523353
0.26464966 0.837076 0.5679371 0.18934235 -0.37407288 -0.994643 -0.9627884 -0.7723714
0.56213707 0.46007493 0.36594096 0.32986704 0.06639884 -0.3028023 0.010601712 0.08963214
0.049499206 0.12064966 0.5562028 0.29242665 -0.14256169 0.1013623 0.51513463 -0.52125573
-0.68417645 -0.22979008 0.22583196 0.2057479 0.90491176 0.4254711 -0.36417907 -0.8196847
-0.43879303 0.42348412 -0.010405927 -0.17658712 -0.33428138 -0.10746369 -0.13183405 0.13403843
-0.12735072 0.042796567 0.23291104 -0.041189466 0.08545971 0.12562265 -0.0054190313 -0.08190444
0.39881688 0.35636973 0.2931172 0.122853756 0.06306884 -0.103152856 -0.07914184 0.16130345
0.050362784 0.015154147 0.029096331 -0.28632808 -0.12437849 0.16510999 0.03786333 0.03250829
-0.21214496 -0.24791263 -0.39478576 -0.16790123 -0.44902942 -1.1363764 -0.09163486 0.56768787
0.24634911 -0.70871633 -0.9763351 -0.89413106 -0.49675372 -1.0332006 -1.0067697 -0.9615489
-1.374268 -1.1594805 -0.9451649 -0.08562076 -0.07781324 -0.2064464 -0.5446737 -0.51531124
0.31241894 0.103661254 0.1334718 -0.10405199 -0.23342173 -1.0070679 -0.512275 -0.25014925
-0.5939129 0.20664681 0.5612984 0.55194765 0.16760948 0.023276996 -0.08757347 -0.14192146
0.35897124 0.5395414 0.50802934 0.2412608 -0.16452982 -0.025702914 0.23044986 0.55813116
0.5934972 -0.23318146 -0.19743998 -0.39494115 0.030967439 0.119152956 0.033835456 0.042334806
0.008331557 -0.11687131 0.07855444 0.075626895 0.223324 -0.30702066 -0.42889804 -0.31865263
-0.1136572 0.14308627 0.02015277 0.022172108 -0.0618537 -0.05969947 0.14163086 0.14487115
0.32826883 0.047720537 -0.3856107 -0.19308385 -0.23399696 -0.07009897 -0.4457427 -0.39681232
-0.6386267 -0.502966 -0.33634558 0.1107155 -0.31146586 -0.30720127 -0.3887014 0.16722368
0.3761993 -0.55753154 -0.44684312 -0.98497283 -0.86750084 -0.25949767 -0.7469403 -0.31908244
-0.64705265 -0.8331136 -1.0673537 -0.05659805 -0.010831124 0.3777237 0.5156204 0.7024598
-0.178562 0.113123946 -0.39040124 -0.5727019 -0.13489951 0.2216941 -0.06357442 -0.2777165
-0.30393967 -0.2696794 -0.27685097 -0.05185764 -0.4988554 -1.1480289 -0.6696391 -0.3936739
-0.2853295 -0.07066343 -0.018035416 -0.2502062 0.044610675 0.120989665 0.4531189 0.51548463
0.48609915 -0.15485851 -0.03983287 -0.09491379 -0.02198906 -0.05714758 -0.17851451 -0.0353299
0.04032962 0.055648904 -0.049513895 -0.077682205 -0.1397221 0.046165124 0.18506312 0.19030632
0.056522265 -0.08836188 -0.25788197 0.08687801 0.17774272 -0.45922863 -0.5547073 -0.54062694
-0.37302956 -0.24538225 0.015664035 0.051946804 -0.047755603 0.35753542 0.5951087 -0.056515872

conv2.bias f4 [16]
00000000: 30d6 50be 82d0 f1be c377 6a3e 9a18 f1be
00000010: b709 05bf e768 fb3d 679c 58be 0ae0 eebe
00000020: f3e1 033e 04d0 023e b895 0cbf 26c2 fbbe
00000030: a359 ddbe 66ad 99be 5511 333c 7dac f5be
-0.20394206 -0.4722939 0.22897248 -0.47089082 -0.5196795 0.12275868 -0.21153413 -0.46655303
0.12879162 0.12774664 -0.5491595 -0.4917156 -0.4323245 -0.30015105 0.010929425 -0.4798316

fc1.weight f4 [120, 256]
00000000: 916b 9abf 303e 31bf 5605 1d3d 8838 6cbb
00000010: bfdf bebe f47a 2ebe bfa4 c93e c7c5 b93e
00000020: 1876 cf3d 8688 5f3e 8257 4abd fd22 c1bd
00000030: 6baf 3ebe d092 02bd a0d0 ecbe 4c26 65bc
00000040: 9776 28bf d0c2 013e 70db f93e 34c0 283e
00000050: f601 03bf e9c2 cc3d a27f 21be 27e5 8abd
00000060: 8621 5f3e 04e8 d6bd 6f47 0cbe cc6f 0cbe
00000070: 3227 d3bd 5f35 d0bd 4482 15bf 911f b63d
00000080: 20b5 c43e 8fb7 ee3e c4ca 043f 6585 8c3e
00000090: 354a 853e 706b 343e 0e7e 8e3e 087f ebbe
000000a0: e24b 40be a765 423e efa1 c3be e1b7 e0be
000000b0: 0b64 3fbe cbf5 193d 9bcf 35be cbbb 2ebe
000000c0: d0a8 6fbe e1d9 8dbd c888 b7be ff68 0dbf
000000d0: 0421 8abe 05c7 1abe 061c 5e3d 162e 3e3e
000000e0: 7320 82bf 502b a1be 8a72 d1be 9412 2a3e
000000f0: c93f a83c 35ab 1a3e 30a0 ba3e 688b d43d
00000100: d928 33be 2fd6 8e3d 723f 9bbd b0b8 91be
00000110: 72e5 ab3d 6c82 90be 0c16 453e cbdc 253e
00000120: f146 9cbe 7337 a8be 4fad 03bf b27b c4bd
00000130: 4f08 dbbe 3a94 1b3e 3ace 4bbd 8de5 b9be
00000140: fe41 0d3e 3546 133f 7b22 333f 707c 353d
00000150: 76ab fbbc 02e2 193e e244 7f3e df02 7ebf
00000160: c8c8 21be 8466 f73b 4437 b73e 7994 f8be
00000170: 2724 cfbd 484a acbe 5bb8 48be 8aa9 d4be
00000180: 7b25 e53c aaab 023f 8e90 20bd 8e24 fd3b
00000190: c985 23be 0b58 903c 23a8 b6be 4418 15bf
000001a0: 98cc 76be dd48 823c dc94 113f f2cc dfbe
000001b0: 73c4 6bbe 3409 75be 4204 ba3e 0690 22bf
000001c0: 54ac c23d 82ff c2bd dcb5 2ebf 49c8 bfbe
000001d0: 88db e0bb 7fe9 753e 04ef e63d 0a97 eb3e
000001e0: 613f 8cbe 70cb 543e d9dc 9dbe abbf b3be
000001f0: 8f3a 63bc 021e 163f 5d2d 3f3f f471 a93e
00000200: 209d 0bbf 382a 9ebe fe6a 323f 21c7 673f
00000210: aae6 61bf a4ad 79bd 73f2 063e 542a 22be
00000220: 6744 b8bc d264 28be dc83 46be 9344 16bf
00000230: 9e0c f1be 8136 f4be 5ce7 b33e 8a6a a43e
00000240: 80ae ac3d 7463 b1be 0f93 c13e 73f8 113f
00000250: a298 d73d 6b01 66bd 6008 853d c834 a53e
00000260: 66b8 a93d 7bbf 163e 5d2a 9dbd e218 a5be
00000270: 31a0 b83e 013c 803e e177 71be b2ee 71be
00000280: 6c79 093d a2af 1dbe 0733 943e 7ed6 2bbf
00000290: ee32 8e3d f8b0 91be a6d4 7dbe 8c97 8bbf
000002a0: 14ee 133d 487f 04bf 67d7 3fbe a30c cabd
000002b0: 119b 20bf 8db1 b4be 212b 80be 348c d83d
000002c0: 600b 27be b629 74be e912 a1be da22 ddbe
000002d0: 36d7 a0bd bd42 69be 295d debe c942 9abe
000002e0: 3dc8 25bf bede 76be 97e3 40bc 0c5c a83e
000002f0: 2475 a8bc 8fe7 4e3c 63e8 473d 16f4 0a3c
00000300: 0985 0fbb b169 a7bd a96d 783d b019 32be
00000310: f413 873d e044 a9be 180c 243e 5bae 89be
00000320: 5879 babe 01af 36bf d844 c23d 0a94 953e
00000330: 21d8 79be 7eec 203b 5b5d 723b 0635 1f3d
00000340: bb81 f23e dce7 213f 2d56 ff3e 1390 5ebf
00000350: 7cae af3e 4a34 e2bd ec9e 853e 7019 62bf
00000360: 6d3d 8f3e 228a d8be 02c7 013f 9b03 a9be
00000370: 3103 84be ce3d eebe 445b ed3c 4d13 303e
00000380: 328d 17bf d279 80bd a256 8fbe efce d9be
00000390: 1726 493e 3e7a 023e c6ba fc3e 3068 273f
000003a0: 5273 89be 8865 803e 1cb0 1d3e b677 c3bd
000003b0: 7387 7e3d e3cb 623e 3f1b c9bd 72cd d33b
000003c0: f002 9abd d209 c93e b217 ca3e 2a71 77be
000003d0: 6ffb 843e c568 c33c 5300 1dbe a1b3 943e
000003e0: 9681 68be 2b9d 0ebe 45eb 233f b0c2 303f
000003f0: 3713 9cbd 5581 b3bd 68f0 de3e 1779 f73d
-1.2064077 -0.69235516 0.038335167 -0.0036044437 -0.3728008 -0.1703909 0.39383504 0.36283705
0.101299465 0.21829423 -0.04939986 -0.094305016 -0.18621604 -0.031878293 -0.46252918 -0.0139861815
-0.65805954 0.12671971 0.4880023 0.1647957 -0.5117487 0.09998114 -0.15771344 -0.067819886
0.21790132 -0.10493472 -0.13699125 -0.13714522 -0.1031021 -0.1016643 -0.58401895 0.088927396
0.38419437 0.4662442 0.51871896 0.27445522 0.26033178 0.17619109 0.27830547 -0.45995355
-0.18778947 0.1898409 -0.38209483 -0.43890288 -0.18690507 0.037587922 -0.17754976 -0.17063825
-0.2340424 -0.06926323 -0.35846543 -0.55238336 -0.26978314 -0.15114982 0.054225944 0.18572268
-1.0166153 -0.31478357 -0.409077 0.1660865 0.020538228 0.15104373 0.36450338 0.10378152
-0.17496051 0.06974446 -0.075804606 -0.28461218 0.083933726 -0.28224504 0.19246691 0.16197507
-0.30522874 -0.32854804 -0.5143632 -0.095939055 -0.42779776 0.15193263 -0.04975722 -0.36307946
0.13794705 0.57529 0.6997449 0.044308126 -0.030721407 0.15027621 0.2492862 -0.9922313
-0.15799248 0.0075500626 0.35784352 -0.48550776 -0.101143174 -0.33650422 -0.19601576 -0.41535598
0.027971974 0.5104319 -0.039200358 0.007725305 -0.15969004 0.017620107 -0.35675153 -0.5824015
-0.24101484 0.015903885 0.56867766 -0.43711048 -0.23024158 -0.23929292 0.36331373 -0.6350101
0.09505525 -0.095213905 -0.68246245 -0.37457493 -0.0068621077 0.24014853 0.11276057 0.4601367
-0.27392104 0.2078073 -0.30832556 -0.3510717 -0.013868942 0.5863954 0.74678594 0.33094752
-0.5453663 -0.30891585 0.6969451 0.9053822 -0.8824259 -0.060956612 0.13178425 -0.1583646
-0.022493554 -0.1644471 -0.19386238 -0.58698386 -0.4707994 -0.47697833 0.3513745 0.32112533
0.08431721 -0.3464619 0.3780751 0.5701973 0.10527159 -0.056153696 0.06495738 0.3226683
0.08287124 0.14721482 -0.07674096 -0.32245547 0.36059716 0.2504578 -0.23580886 -0.23626211
0.033563063 -0.1539903 0.2894518 -0.67124164 0.06943308 -0.2845533 -0.2478815 -1.0905623
0.03611572 -0.51756716 -0.18734513 -0.098656915 -0.6273661 -0.3529171 -0.25032905 0.105736166
-0.16312933 -0.23844036 -0.3145974 -0.43190652 -0.07853548 -0.22779365 -0.4343045 -0.30129078
-0.64758664 -0.24108407 -0.011773012 0.32882726 -0.02056367 0.01262845 0.048805606 0.008481046
-0.0021899363 -0.08174456 0.060651455 -0.17392612 0.06595603 -0.3306036 0.16020238 -0.26890835
-0.36420703 -0.71360785 0.09485787 0.29214507 -0.24398853 0.0024555023 0.0036981914 0.038868926
0.47364601 0.63244414 0.49870434 -0.8693859 0.3431281 -0.110451296 0.2609781 -0.88320065
0.27976552 -0.42292887 0.50694287 -0.33010563 -0.25783685 -0.46531528 0.028974183 0.17194863
-0.5919982 -0.062732354 -0.27995783 -0.4254069 0.19643436 0.12741944 0.49361247 0.6539335
-0.26845795 0.25077462 0.15399212 -0.095443174 0.062140893 0.22148089 -0.0981965 0.0064637
-0.075200915 0.39265305 0.39471203 -0.24164262 0.2597308 0.023853669 -0.15332155 0.29043296
-0.22705683 -0.13927142 0.6403087 0.6904707 -0.076208524 -0.087649025 0.4354279 0.12083643

fc1.bias f4 [120]
00000000: f112 54bd 74c0 82bd 29db 57be f277 9dbc
00000010: 2f39 d1bb 86f3 653e 3ffb 2f3e 8eac 163e
00000020: 5ee9 96be f85a 10be 9f01 1a3d 550e 40bd
00000030: 6fd8 19be 296e 783e 5508 bfbb 10b6 45be
00000040: 4dca 41be 6574 a8bd fa68 3d3d 3942 bebd
00000050: 7e17 92bd e964 45be 6166 32be 6977 ca3c
00000060: 0ff7 92be 633f 3fbd 2ef9 9b3d 00c1 933d
00000070: 96ff bdbe 9923 19be a172 16be 6b8a a2be
00000080: e5c4 99bd e82d 5dbb e33d 7ebd 1110 87bd
00000090: 280e 63be 8414 71bd 03ab 12be db33 c2bd
000000a0: 441d 6ebc 72c1 3cbe c5f2 85bd 9e07 493d
000000b0: 65cc 0abe c3d2 6dbd 69c2 8cbe f42a 99bd
000000c0: f3f0 683d bdda 97bd d97e 8bbe 8f32 653d
000000d0: bd9d 373e 85e3 7fbe 8c57 4abe e5ae ecbd
000000e0: ab5b 32be 382d d7bc 1cb1 63bd 4b58 3c3e
000000f0: b3b5 76be 4a71 58be ef16 10be abe7 693e
00000100: 7d46 5bbd fabb 91bc e60b d3bd 63ce 78be
00000110: 5dd2 b1bd e7f1 aabd ab00 a73c fd12 c93e
00000120: c9e5 ae3d 4e7a 0fbe d3a6 bbbe bd96 1fbe
00000130: 3d38 143e 0117 8e3e 0115 813b 2ada 0dbe
00000140: 1d2c 24be f2b4 1cbe 2a1d 1cbe 2723 06be
00000150: e9ff 143e 5305 523e c6a1 adbe 2c70 67bc
00000160: c9cc bbbd 3368 36be e523 343e 3cf0 acbe
00000170: f7f7 c1bd fb4b 473e 60a7 02bd 8dcd 23be
00000180: 57c6 f4bd 7f25 42be 8ed7 48bd 3ebe 793e
00000190: ffc3 30be ad3c 77be ed97 313d a831 e6bd
000001a0: 9238 d0bc 20aa babc 96a3 29be 1d7e b0be
000001b0: 16e4 76be 08c2 14be 2ce3 9bbe 6b0d a83e
000001c0: 71db d4bd 3469 d0bd 301f 6fbe 826e 0ebe
000001d0: a60f 0dbe 4004 2a3e 6711 903d 08dc 51be
-0.051775876 -0.06384364 -0.21079697 -0.019222233 -0.0063849906 0.22456178 0.17185687 0.14714262
-0.2947492 -0.14097202 0.037599202 -0.046888668 -0.15023969 0.24260773 -0.0058298507 -0.19307733
-0.18924828 -0.082253255 0.04624269 -0.09289975 -0.07133387 -0.19276775 -0.17421867 0.024715142
-0.28704116 -0.04669131 0.07615887 0.07214546 -0.3710906 -0.14954986 -0.14692165 -0.3174623
-0.07508258 -0.0033749286 -0.06207074 -0.06594861 -0.22173369 -0.058857456 -0.14323048 -0.09482547
-0.014533345 -0.18433169 -0.06540445 0.04907953 -0.13554533 -0.058062326 -0.27492073 -0.07478896
0.056870412 -0.07414768 -0.27245215 0.05595642 0.17931266 -0.24989136 -0.19759959 -0.11556796
-0.17417781 -0.02626668 -0.055588827 0.18393056 -0.2409275 -0.21136966 -0.14071248 0.2284228
-0.05353402 -0.01778983 -0.10305004 -0.2429748 -0.08682702 -0.083469205 0.02038606 0.392723
0.08539922 -0.140115 -0.36650714 -0.15584846 0.14474578 0.27751926 0.0039392714 -0.13852754
-0.16032453 -0.153034 -0.152455 -0.13099347 0.14550747 0.20509844 -0.33912486 -0.014125865
-0.09169919 -0.17813186 0.17591818 -0.33777034 -0.09471124 0.19462578 -0.031897902 -0.1599638
-0.11951893 -0.18959616 -0.049033694 0.24388978 -0.17262267 -0.2414424 0.04335778 -0.1123994
-0.0254176 -0.0227862 -0.1656631 -0.34471217 -0.24110445 -0.14527142 -0.30446756 0.32822737
-0.103934176 -0.10176316 -0.23351741 -0.13909343 -0.137755 0.16603184 0.07034569 -0.20494092

fc2.weight f4 [84, 120]
00000000: d14f bebd 2e95 453e a6d6 e53e b35f 3c3e
00000010: 94b4 55be 1c9f 9ebe 7dc9 2c3c b28f 1fbe
00000020: 3e85 53bc fe35 933d 6aa8 e83e 31cd d1be
00000030: aba8 dabe 4922 993c 867b 17be 8b01 d03e
00000040: a05a 093e 91ae bc3b 72af 9ebe f04f 883e
00000050: e4cc 86be fd9b a73e 764f f4bc 5cce 923e
00000060: 9183 0d3f 6e3d 683e f1ff 0dbf 1bfe 79be
00000070: da3f cdbc 1689 583f b765 ce3d 1d38 3d3e
00000080: 9634 5ebe 2608 8cbd 9810 5ebe 8cce 963d
00000090: 0f91 6c3e 2a54 eabd b003 1fbe 1c0e babe
000000a0: b390 63bd 5fd0 ab3e 7adf 04bf b5c2 afbd
000000b0: 556c 9e3e 7b47 23bc c91a b23e f895 b9be
000000c0: 76a2 79be 6f88 7cbe 5625 a03c 476d 26be
000000d0: 8de7 23be 0087 953c 6a41 5e3e 6ffb 923e
000000e0: 3be0 3dbe 768c 80bc 1199 8f3e ca7a 29be
000000f0: a367 393e 919c 40be e1e8 893e d805 3abf
00000100: ea39 d33c 4dc3 b4be 0d87 ab3e 9773 c2be
00000110: c89d 113e 6928 bd3c 63cd ce3d 026f b43d
00000120: 17ba 09be 6099 8f3e 9164 c13e a1f0 b4bd
00000130: ce0c 673d d416 babe fa33 0bbf 299c 46bd
00000140: 2117 233c e8fa e13e e28d 6d3d 630f 133e
00000150: 0463 2cbd 1b5f f9be 48a4 ce3e dbd3 5b3e
00000160: 03f1 843e 15e6 393d f074 efbc 37ce 5e3e
00000170: 4fdc c53d ab40 9b3d 6bd8 6ebd 0fd1 443e
00000180: 1abe c5bd 9fa7 153e 1a4f 663d 419a 7ebe
00000190: 4445 3b3f 5011 543e 0b09 12be 928c 2d3e
000001a0: 4386 24bf 5596 893e 2006 b73d 6264 9dbd
000001b0: 78c3 c73d 83f6 50be 56d9 0ebe 2abd 943e
000001c0: 2f35 c43e 10f3 8a3f 9345 8d3d 07e5 8ebd
000001d0: 7946 91bd 5185 95bc dc32 99be 4e9e 82bd
000001e0: f31c d13e 7c8d d3bd 903e 67bd 94af cc3d
000001f0: 1562 8abd af64 55be d5c2 10bf dfe8 01be
00000200: f604 023f b519 c9bd d644 13bf e980 d73e
00000210: cd5f 8f3e 8390 ecbe 49b6 55be 4fe2 b33e
00000220: 27b7 373e 0de2 403d 89d6 533d d701 fcbe
00000230: 30e9 26bf c0e8 623f 0002 e9bd c7be 393e
00000240: 309f 103f 6450 d83d aa81 053f 7e9c fcbe
00000250: 8654 9abe 0fc0 45be 1809 a4be 0fdd 003e
00000260: 3ff4 bbbe 5451 92be f0d5 903d 954b aebd
00000270: 6ad2 4abe 4d0a 3a3e 3052 5dbe ea5e ddbe
00000280: 892b 89bc 4297 93be d407 153f 7324 05be
00000290: cada 843e 35ab 2dbe 2e05 593f f1a1 47bd
000002a0: 9a96 3dbe c99d 57be cfbe d73e ea71 50be
000002b0: e4d3 d8bd 2cfe d03e dcad 22be 81ef 5abe
000002c0: 713b 093e 767a c2bc 7e17 13bf 2dae d4be
000002d0: 4a85 0f3f 3c9c 95bd 7703 a13e bf92 e5be
000002e0: 3df9 8cbd e2d8 16bf f065 2a3e 747e 0c3f
000002f0: 2d16 22bf d9b8 c3bd 5f2d 1bbe 90b8 d4be
00000300: 427a e5bd 051d 7d3e 3b2f 773f 07b2 963b
00000310: 7e22 d6be d76d 94be e9de 863e 67d6 1ebe
00000320: 5b2c 133d 0a62 a53e ffe4 043e 9e09 1d3e
00000330: e5c6 9b3b 508c d1be e6b8 e63e 6e94 8cbe
00000340: ce29 0b3e 059c 6ebe 67ca 51bd 2f87 103f
00000350: 13c5 d8be ae58 0abf 22a5 3c3c a852 1f3e
00000360: 5982 13bc 804b 97be 4ad9 af3b bde1 0bbe
00000370: 041a f6be 4883 7ebd 9d19 8d3d dc07 a23e
00000380: 5203 883e baab acbe fd7a b83d daad 25bf
00000390: da48 ea3e 2251 cfbe 3d58 0a3e d5ea 00bf
000003a0: b37b 1fbe b4fd 01bf 79f4 bdbe 39a0 fb3a
000003b0: 6175 303e cba4 16bd 8368 d9bd 4f83 2f3e
000003c0: 8d06 2abe 91e1 153c b252 abbd b558 a93d
000003d0: ebad 10be 2a34 4f3d feb1 7cbd b904 b4bd
000003e0: be9e 07be e738 17be 0b5c 02bd c497 4c3c
000003f0: 358c b3bc acb4 30bd 0c76 e7bd d9b7 70bd
-0.092925675 0.19295189 0.44890326 0.18395881 -0.20869666 -0.30980766 0.010546085 -0.15582159
-0.012910185 0.071880326 0.4544099 -0.4097686 -0.42706808 0.018693106 -0.14793214 0.40626177
0.13413477 0.0057581146 -0.3099323 0.26623487 -0.26328194 0.32736197 -0.029823046 0.28673065
0.5527888 0.22679684 -0.5546866 -0.2441334 -0.02505486 0.84584177 0.10077994 0.18478437
-0.21699747 -0.06837492 -0.21686018 0.073636144 0.2310221 -0.11441834 -0.1552875 -0.3633889
-0.055557918 0.33557412 -0.519035 -0.08582059 0.30942026 -0.009965773 0.3478606 -0.3624723
-0.2437838 -0.2466142 0.019549053 -0.16252623 -0.16006298 0.01825285 0.21704641 0.28707454
-0.18542568 -0.015691977 0.28046468 -0.16550747 0.1810594 -0.18809725 0.26935485 -0.72665167
0.025784452 -0.35305253 0.33501473 -0.37978813 0.14220345 0.023090558 0.10097768 0.088102356
-0.13449894 0.28046703 0.3777204 -0.08834959 0.056408696 -0.3634554 -0.54376185 -0.04848877
0.009954245 0.4413674 0.057996638 0.14361338 -0.042086616 -0.48705372 0.40359712 0.21467535
0.25965127 0.04538544 -0.029230565 0.21758352 0.09661161 0.07580694 -0.05831186 0.19220375
-0.096553996 0.14614724 0.05622778 -0.2486353 0.73152566 0.20709729 -0.14261262 0.16948155
-0.6426737 0.26872507 0.08936715 -0.07685162 0.097540796 -0.20406537 -0.13950095 0.2905057
0.38321826 1.0855427 0.06898036 -0.06977277 -0.0709352 -0.018252047 -0.29921615 -0.063778505
0.408424 -0.103297204 -0.05645615 0.09994426 -0.06756989 -0.20839189 -0.5654729 -0.1268649
0.5078882 -0.09819356 -0.5752691 0.42090538 0.28002778 -0.46204004 -0.20870318 0.35133597
0.17940961 0.04709058 0.05171827 -0.49220154 -0.65199566 0.886364 -0.113773346 0.18139182
0.564929 0.10562208 0.52150977 -0.49338144 -0.3014261 -0.19311546 -0.32038188 0.12584327
-0.36709782 -0.28577673 0.07072055 -0.0851051 -0.19806829 0.18167992 -0.21613383 -0.43236476
-0.016744392 -0.28826338 0.5821507 -0.13002186 0.25948173 -0.16959842 0.8477353 -0.048738424
-0.18514481 -0.21056284 0.42137763 -0.20355955 -0.1058729 0.40818918 -0.15886635 -0.21380426
0.13401581 -0.023740035 -0.5745772 -0.41539136 0.5606276 -0.0730519 0.31447956 -0.4483852
-0.06883476 -0.58924687 0.16640449 0.5488045 -0.6331509 -0.09556741 -0.15154026 -0.4154706
-0.112049595 0.24718101 0.9655644 0.004598859 -0.4182319 -0.2899005 0.26341942 -0.15511476
0.035930973 0.3230136 0.1297798 0.153357 0.0047539347 -0.40927362 0.4506294 -0.27456993
0.13590166 -0.23301704 -0.051218417 0.56456274 -0.42337856 -0.54041564 0.01151398 0.15558875
-0.009003245 -0.2954979 0.005366479 -0.13660331 -0.48066723 -0.06213692 0.06889651 0.3164662
0.26565033 -0.33724767 0.09007833 -0.647184 0.45758706 -0.40491587 0.13510223 -0.50358325
-0.15574531 -0.50777745 -0.3710058 0.001919753 0.17232276 -0.036778253 -0.10615637 0.17139934
-0.16604061 0.0091480175 -0.08365382 0.08268873 -0.14128844 0.050586857 -0.061693184 -0.08789963
-0.13244149 -0.147678 -0.03182606 0.012487356 -0.021917442 -0.043141052 -0.113018125 -0.05876908

fc2.bias f4 [84]
00000000: ad15 39be 9985 a9be 3db6 05be 085a 083e
00000010: 4bb9 293d 77e9 a33d 5dca f4bd 99a6 26bc
00000020: 5932 4a3e 38b8 803c 1db4 7cbe 08d6 903e
00000030: d56e 2fbe 3ea8 503d a09f 2cbd d1e1 0f3e
00000040: 42d4 31be c8b3 8dbe 4835 843a 5d0b 6cbe
00000050: 9af9 a13d 9a18 b6be a18a 21be caf2 b43d
00000060: 48a8 e8bd b7d8 343e 00dc 7abe 6412 27be
00000070: 1079 44be 1247 c53e 61b9 05be 4dbe 6fbe
00000080: 3082 2abe a867 31be b053 a7bc c80b ab3b
00000090: f271 63be 3b3e a5be 56b5 953e 46ec 163d
000000a0: 7117 a7be e255 d7bd ee55 6f3c a8cf 36bd
000000b0: f8f8 e83e f753 f7bc 0581 80bd c7cd 7c3e
000000c0: b3fe 11bd 325a d3bd ea2e d63d 6f1e cebd
000000d0: 706f 34be 8523 e8bd db68 bdbd 5ef5 e7bd
000000e0: aef3 9abe 27f0 a4bc 90a6 00bf 1470 07be
000000f0: bd31 37be ea0d 4dbe 5901 4d3d ca3e 06be
00000100: 0ebd a13e b43f 60bd 6eae 97be 2558 36bd
00000110: ab25 a33e 9a44 3abe 90a9 1cbe d022 5e3d
00000120: 1125 bbbe ce90 cd3e 2486 b1bd fe25 9dbe
00000130: 9f37 7abe 3f57 dc3d d6a7 6bbe 173d ae3d
00000140: 03c4 d83e daa5 bcbe a819 603e f296 073d
-0.18074675 -0.3310974 -0.130578 0.13315594 0.041436475 0.08003514 -0.1195266 -0.010171556
0.19745769 0.015712842 -0.24678083 0.28288293 -0.17132123 0.0509417 -0.042144418 0.14050986
-0.17366126 -0.27676225 0.001008668 -0.2305121 0.07908936 -0.35565645 -0.15775539 0.08835371
-0.11360222 0.17660795 -0.24497986 -0.16315609 -0.19186807 0.38530785 -0.13058998 -0.23412438
-0.16651225 -0.17324698 -0.020425647 0.0052199103 -0.22211435 -0.3227404 0.2923991 0.03684642
-0.32635072 -0.10514428 0.01460789 -0.04463163 0.45502448 -0.030191405 -0.062746085 0.24687873
-0.03564329 -0.10319938 0.10458167 -0.100643985 -0.17620635 -0.113349 -0.09248515 -0.11326097
-0.30264038 -0.020134045 -0.50254154 -0.13226348 -0.17890067 -0.20024839 0.050050113 -0.1310989
0.3158955 -0.054748252 -0.29625267 -0.044517655 0.31864676 -0.18190232 -0.15299058 0.05423242
-0.36551717 0.4014954 -0.086681634 -0.30693048 -0.2443528 0.10758828 -0.23013243 0.08507746
0.42337045 -0.36845285 0.21884787 0.033102937

fc3.weight f4 [10, 84]
00000000: 32bf 0dbe abda c0bd 7233 893d d7f1 f53d
00000010: 12ba b9be d5f9 cfbd a4ae c43e 579f f0be
00000020: d77d 5ebe 4df1 06bf 07a4 63bf ef32 533d
00000030: 2439 8bbb 4b59 983e 777f 693e 150f debe
00000040: a4a0 d4be d048 c13c b91b 993e 045f 04be
00000050: 9bdc febe d5b9 c43c 041a 39be caa5 d4bd
00000060: 143d 73be fd59 b43d b08e dbbe d3c7 27be
00000070: 8ad4 a5bd 3ae4 e8be 9fd2 903e 85b6 38be
00000080: 417e 58be bda2 c1bc 2e50 abbe 5027 6a3e
00000090: 9f50 fabd faac 35be 3f38 87be 4968 f0bd
000000a0: 922a 5dbe 4813 c2be f166 38bf 26a8 3cbd
000000b0: 3b3e 97be 80d6 b63e 1692 61be fdc3 06bf
000000c0: da19 6f3f d45d 4cbc 06b4 b5be 34f4 58bc
000000d0: c559 8dbd fe30 0b3e 6c97 773d 90c2 4fbd
000000e0: 898c c0bc a326 d63e d4bb 77be 14c0 87be
000000f0: 4450 4bbf 563d c1be ca2b 333f 48d6 143f
00000100: e6df 56be 22c6 c03e 2118 ae3d 531e ab3e
00000110: 2544 f63d 9741 8cbd a1ce 7d3e 1aea debd
00000120: 4e1a f63d 9d62 89be a796 86bd 561c 79be
00000130: ef44 a7be 7d2d 593c d9fa a9be 5f09 5f3d
00000140: b3f3 d3be 9edb 823e b4cc 3d3e 38ef f8be
00000150: a151 6fbe 15af ecbe 34d7 2b3c e7cd 03be
00000160: 00af 9bbe 3479 cdbe ce51 4e3e 23d8 f0be
00000170: e471 16bf 3c89 db3b b8bc a43d 20f5 6bbe
00000180: d18f f23c aead 5ebe ff35 923e 83fb 153f
00000190: f812 983d 96d6 b4be 994f 94be 1aa6 79bd
000001a0: aace 033f f9ef f0bc 9e60 0a3f fb20 2abe
000001b0: f230 de3e eb4e d0bd 809f 803c c4c8 1cbf
000001c0: 1cfa c0bd 92d9 1d3e c93f ffbe 4232 b13e
000001d0: 5c75 55be 5be5 063d f494 a03c e16a 963d
000001e0: 8cfc 573e 647f d63d 75e2 ecbe 06e8 d4bd
000001f0: 3071 08bd a332 8abe 0f2a 14bd daf7 ab3e
00000200: 89f4 973e 49b6 3abf c8ca 523d 407d 893d
00000210: 54c0 0dbd c56b 823d 30db ec3e 0cf6 d33e
00000220: 8024 223f 63e2 523e 3328 293c c77a b03e
00000230: 3707 94be 5d9a ebbe b808 bdbe a2c1 c8be
00000240: 788f 113e f147 fabd ecb4 69bf c059 023b
00000250: ba42 10ba 3f38 0abf 5758 d7bc 882d d43e
00000260: b0bb 033f 86df 82be 4bb7 5cbe 9bfa aebe
00000270: b805 bcbd 2fdc 793d db34 acbe dc5e e5bb
00000280: c5ad bcba c783 a9bd cd54 7b3e 699e 7ebe
00000290: a6c0 a9bc 32b6 79be d8c0 ccbd 8638 a0be
000002a0: ad34 a83e 8ae2 3dbe aee4 7f3d 150a 653d
000002b0: 9be2 5bbe e595 47be 7c6e 2c3e bf4c 073d
000002c0: 8baf 8cbe 29d5 e7be 9fa0 1ebe 627d 523e
000002d0: 9f12 32bd 54da ffbe 18ba 9bbe e2d6 26be
000002e0: 0940 0c3d 1358 bf3e 2b9c 65be a5fd 083e
000002f0: 9157 76be 816d 3b3d db08 193e b0fb 61be
00000300: ea6b 903e 41cf 32bf 83c3 0f3e d034 2b3e
00000310: 6f0b 45be ecff 873e 5059 b53e e726 d2be
00000320: 2e1d d83e b6f8 babd cdd4 28be a51f a3bd
00000330: 1583 3dbc f816 2abe 7949 31bf 92af 34bf
00000340: 0027 61be 7eb0 4cbe 7163 14bf 942c e43c
00000350: d190 74be 3d63 16bf 5dc2 edbd 8489 d83c
00000360: 3ce1 67bf 6bef ae3d 3a75 f0be 3a10 3cbe
00000370: 2f4e 81be de37 743e 0a10 d43e 1bbc aa3c
00000380: 903d 9d3e 9bdd ebbe fbb5 a7be 3828 d2be
00000390: d449 babe 62df ffbe e7b2 fdbe 036d bf3e
000003a0: 56bb 5bbe fecb 07bf dabb 793e cc50 c4be
000003b0: 7537 f5bd b920 1e3f 2eb4 1a3f 91ed dc3d
000003c0: 72ef 89bd 0047 b0bc 640c d8bb 343b b2bd
000003d0: fe7e 2fbf 9b1e 94be 2428 6b3e 81b7 933e
000003e0: 64db b8be e987 753d d8d4 9a3e 8af3 09be
000003f0: 22c1 b23d 6f8c 2dbf 4682 28bc 0fdb 183d
-0.13842466 -0.094167076 0.066992655 0.12009018 -0.36274773 -0.101550736 0.3841449 -0.46996567
-0.21727692 -0.52711946 -0.8892216 0.051562246 -0.004248755 0.29755625 0.2280253 -0.43370882
-0.4152881 0.02359429 0.29903963 -0.1292687 -0.49777684 0.024014393 -0.1807633 -0.10383184
-0.23753768 0.088062264 -0.428823 -0.1638482 -0.08097179 -0.45486623 0.2828569 -0.18038376
-0.21141912 -0.02363717 -0.3345961 0.22866559 -0.122224085 -0.17741767 -0.264101 -0.11738641
-0.2159827 -0.37905335 -0.72032076 -0.046058796 -0.29539666 0.35710526 -0.22028384 -0.52642804
0.9339882 -0.012473542 -0.3548891 -0.013241816 -0.06901888 0.13592908 0.06044714 -0.05072266
-0.023504512 0.41826352 -0.24192744 -0.2651373 -0.7941935 -0.37742108 0.6998869 0.5813947
-0.20983848 0.37651163 0.08500696 0.33421573 0.12024716 -0.06848448 0.24785854 -0.10884495
0.12016736 -0.26833048 -0.065717034 -0.24327216 -0.3266978 0.013255474 -0.33199194 0.054452296
-0.41396865 0.2555818 0.1853512 -0.4862001 -0.23370983 -0.46227327 0.01048832 -0.12871514
-0.30406952 -0.40131533 0.20148394 -0.470399 -0.58767533 0.006699709 0.08043808 -0.23042727
0.029609593 -0.21745941 0.2855682 0.585869 0.07425493 -0.35319966 -0.28966978 -0.060949422
0.5148722 -0.029411303 0.54053676 -0.16614144 0.43396717 -0.101713024 0.015701056 -0.61243844
-0.094227046 0.15415028 -0.49853352 0.34608656 -0.2084555 0.032933574 0.019602276 0.07344604
0.21092433 0.104735166 -0.46266523 -0.103958175 -0.03331107 -0.26991758 -0.036172923 0.33587533
0.29678753 -0.72934395 0.05146292 0.06713343 -0.034607247 0.06368212 0.46260977 0.41398656
0.63336945 0.20594172 0.010324526 0.34468672 -0.28911754 -0.46016207 -0.36920714 -0.3921023
0.14214885 -0.12220753 -0.9129169 0.001988992 -0.0005503107 -0.53992075 -0.02628724 0.41440988
0.51458263 -0.2556116 -0.21554296 -0.34175572 -0.09180778 0.061001 -0.33634076 -0.0069998335
-0.0014395049 -0.08277088 0.24544068 -0.24865116 -0.020721745 -0.24385908 -0.099977195 -0.31293124
0.32852688 -0.18543449 0.062473945 0.055917818 -0.21473162 -0.19490774 0.16839021 0.033032175
-0.2747768 -0.45279816 -0.1549096 0.20555642 -0.04347479 -0.4997126 -0.30415416 -0.16292909
0.034240756 0.37371883 -0.22422855 0.13378008 -0.24056841 0.045758728 0.14944784 -0.22068667
0.28207332 -0.69847494 0.14039426 0.16719365 -0.19242643 0.2656244 0.35419703 -0.41045305
0.42209762 -0.09129469 -0.16487427 -0.0796502 -0.011566897 -0.16610324 -0.69252735 -0.705804
-0.21987534 -0.19989201 -0.57964236 0.027853288 -0.23883368 -0.58745176 -0.116093375 0.02643276
-0.90578055 0.08541759 -0.46964437 -0.18365565 -0.25254962 0.23849437 0.41418487 0.020841649
0.3071103 -0.4606751 -0.32756028 -0.4104631 -0.3638445 -0.49975115 -0.49550554 0.37387857
-0.21458182 -0.5304564 0.24388066 -0.38342893 -0.11973468 0.6176868 0.6043118 0.107875
-0.06735124 -0.02151823 -0.006593274 -0.08702698 -0.6855315 -0.289296 0.22964531 0.2885094
-0.36104882 0.059944067 0.30240512 -0.13471809 0.087282434 -0.6779241 -0.010284966 0.037318286

fc3.bias f4 [10]
00000000: 76f8 673d faa2 483e 3922 0bbe 876b 9a3d
00000010: ae4a 31be 4b32 f7bb 46ed 92be 226f 02be
00000020: d60c db3e 13a4 cb3d
0.056633435 0.1959342 -0.13587274 0.075400405 -0.17313644 -0.007543837 -0.2869665 -0.12737706
0.4278323 0.09943404
